…
ge 0.3234; fnlwgt -0.1804; education-num -0.0290; ,workclass  Private; education  Some-college; marital-status  Never-married; occupation  Handlers-cleaners; relationship  Own-child; race  White; education-num_na False; age -1.1408; fnlwgt 0.4718; education-num -0.0290; ,workclass  Private; education  HS-grad; marital-status  Married-civ-spouse; occupation  Tech-support; relationship  Husband; race  White; education-num_na False; age -0.2623; fnlwgt -0.2200; education-num -0.4202; 
y: CategoryList
<50k,<50k,<50k,<50k,<50k
Path: .;

Test: None, model=TabularModel(
  (embeds): ModuleList(
    (0): Embedding(10, 6)
    (1): Embedding(17, 8)
    (2): Embedding(8, 5)
    (3): Embedding(16, 8)
    (4): Embedding(7, 5)
    (5): Embedding(6, 4)
    (6): Embedding(3, 3)
  )
  (emb_drop): Dropout(p=0.0, inplace=False)
  (bn_cont): BatchNorm1d(3, eps=1e-05, momentum=0.1, affine=True, track_running_stats=True)
  (layers): Sequential(
    (0): Linear(in_features=42, out_features=200, bias=True)
    (1): ReLU(inplace=True)
    (2): BatchNorm1d(200, eps=1e-05, momentum=0.1, affine=True, track_running_stats=True)
    (3): Linear(in_features=200, out_features=100, bias=True)
    (4): ReLU(inplace=True)
    (5): BatchNorm1d(100, eps=1e-05, momentum=0.1, affine=True, track_running_stats=True)
    (6): Linear(in_features=100, out_features=2, bias=True)
  )
), opt_func=functools.partial(<class 'torch.optim.adamw.AdamW'>, lr=0.001, betas=(0.9, 0.999), eps=1e-08, amsgrad=False, weight_decay=0.01), loss_func=FlattenedLoss of MSELoss(), metrics=[<function accuracy at 0x7fae7623c680>], true_wd=True, bn_wd=True, wd=0.01, train_bn=True, path=PosixPath('.'), model_dir='models', callback_fns=[functools.partial(<class 'fastai.basic_train.Recorder'>, add_time=True, silent=False)], callbacks=[], layer_groups=[Sequential(
  (0): Embedding(10, 6)
  (1): Embedding(17, 8)
  (2): Embedding(8, 5)
  (3): Embedding(16, 8)
  (4): Embedding(7, 5)
  (5): Embedding(6, 4)
  (6): Embedding(3, 3)
  (7): Dropout(p=0.0, inplace=False)
  (8): BatchNorm1d(3, eps=1e-05, momentum=0.1, affine=True, track_running_stats=True)
  (9): Linear(in_features=42, out_features=200, bias=True)
  (10): ReLU(inplace=True)
  (11): BatchNorm1d(200, eps=1e-05, momentum=0.1, affine=True, track_running_stats=True)
  (12): Linear(in_features=200, out_features=100, bias=True)
  (13): ReLU(inplace=True)
  (14): BatchNorm1d(100, eps=1e-05, momentum=0.1, affine=True, track_running_stats=True)
  (15): Linear(in_features=100, out_features=2, bias=True)
)], add_time=True, silent=False)
{'train': {'training': {'type': 'fit_one_cycle', 'fit': {'epochs': 0, 'lr': 'slice(None, 0.003, None)', 'wd': None}, 'fit_one_cycle': {'cyc_len': 1, 'max_lr': 'slice(None, 0.003, None)', 'moms': '(0.95, 0.85)', 'div_factor': 25, 'pct_start': 0.3, 'final_div': None, 'wd': None, 'tot_epochs': None, 'start_epoch': None}}, 'p
…
